HW3_Deep Reinforcement Learning on Path Tracking/code_practice/save/model.pt (torch, 36734 bytes, 14 tensors)

main.0.weight f4 [64, 14]
0	0xbe2171b1	-0.15766026
1	0x3eba09be	0.36335558
2	0xbe32968a	-0.17440239
3	0xbd8efa9d	-0.069813944
4	0x3db1f001	0.08688355
5	0x3d436da1	0.047711972
6	0x3e365644	0.17806345
7	0x3d9219f4	0.071338564
8	0xbef287f7	-0.47369358
9	0x3e436660	0.19082022
10	0x3e34a3f9	0.17640676
11	0xbe4bec78	-0.19914424
12	0xbed6b261	-0.41932967
13	0x3e32ad19	0.17448844
14	0xbe42d697	-0.19027172
15	0xbe00f722	-0.12594274
16	0x3c1f31c3	0.009716454
17	0x3da86c4c	0.08223781
18	0xbea17899	-0.3153732
19	0xbd51a75c	-0.051184997
20	0x3de29fee	0.110656604
21	0x3e8353a1	0.2564974
22	0xbe5bae39	-0.2145318
23	0x3e8bf7b2	0.27337414
24	0xbdd1e349	-0.10248429
25	0x3e47cf79	0.19512738
26	0x3d5dab43	0.054118406
27	0x3e071baf	0.13194154
28	0x3e3f0e89	0.18657888
29	0x3dbf6710	0.093458295
30	0xbe599ecf	-0.21251987
31	0xbe632ee5	-0.22185858
32	0xbe37c30c	-0.17945498
33	0x3d8723f5	0.06598655
34	0xbe9ba793	-0.30401286
35	0x3e0ca636	0.1373528
36	0xbe647cca	-0.22313228
37	0xbe15af5a	-0.14617673
38	0xbe865a39	-0.2624071
39	0xbe30cc9a	-0.1726555
40	0x3d6165ae	0.05502861
41	0xbcfcae65	-0.030844877
42	0xbdbabc3c	-0.09117934
43	0xbd879ed6	-0.066220924
44	0x3e561e7f	0.20910071
45	0xbeba6bb4	-0.36410296
46	0xbe4695dc	-0.19393104
47	0xbd6eb1ac	-0.05827491
48	0x3f3c4f74	0.73558736
49	0xbb0d2e42	-0.0021542464
50	0x3e1568bb	0.14590733
51	0x3e593185	0.21210296
52	0x3cb69311	0.022286924
53	0xbda7a56f	-0.08185851
54	0xbe9685b5	-0.29398885
55	0x3c91efae	0.017814483
56	0xbe33c8ce	-0.1755707
57	0xbdf5df32	-0.12005462
58	0x3e0775c3	0.13228516
59	0xbe282299	-0.16419448
60	0x3e8a248c	0.26981008
61	0x3e045f7f	0.12927054
62	0x3eb87f59	0.3603466
63	0xbe70812d	-0.23486777
64	0x3e91b083	0.2845498
65	0xbeed5fd0	-0.46362162
66	0x3dad8063	0.084717534
67	0x3dc5d782	0.096602455
68	0xbe59d24f	-0.21271633
69	0x3e85130b	0.2599109
70	0xbe94d2e7	-0.29067156
71	0xbb252cd9	-0.0025203733
72	0xbbe127f0	-0.006871216
73	0xbec4aa1c	-0.38411033
74	0xbe79222f	-0.24329446
75	0x3c6f446a	0.0146037135
76	0x3ec73e2a	0.38914615
77	0xbd9ac3eb	-0.075569
78	0x3ea40118	0.32032084
79	0xbe08d860	-0.1336379
80	0x3d8166d4	0.06318441
81	0x3db1d0a0	0.0868237
82	0xbc9d3eb2	-0.019194935
83	0x3da2339f	0.07920002
84	0x3db1807f	0.08667087
85	0xbd980e51	-0.07424606
86	0xbd84e6a5	-0.064893045
87	0x3e04b218	0.12958562
88	0xbea5545f	-0.32290933
89	0x3d54d13a	0.051957346
90	0xbe598765	-0.21243055
91	0x3e9ce99a	0.30646974
92	0xbe6e66ac	-0.23281354
93	0xbe9b134d	-0.30288163
94	0xbe29b66e	-0.16573498
95	0xbe5dfd3c	-0.21678632
96	0xbd64d5f2	-0.055868097
97	0xbe96405a	-0.2934597
98	0xbeaebeea	-0.3413003
99	0xbc8205ee	-0.015871968
100	0xbea8f6aa	-0.3300069
101	0x3ea7e500	0.327919
102	0xbcb8f49b	-0.022577574
103	0xbdb24ffe	-0.087066635
104	0x3da3ae4c	0.07992229
105	0xbd4a82e6	-0.04944124
106	0x3dcabbf2	0.09899129
107	0xbe3c3a62	-0.18381646
108	0xbeab5ec0	-0.33470726
109	0xbd35af9f	-0.04435694
110	0x3c3ffd53	0.011718112
111	0x3df95321	0.12174059
112	0xbe6758be	-0.22592446
113	0x3ef0926d	0.46986714
114	0xbca1b692	-0.019740377
115	0xbd2046cb	-0.039130013
116	0x3e695be8	0.22788966
117	0x3db4a59d	0.08820651
118	0x3f0aea8d	0.54264146
119	0xbdd2e7d9	-0.10298128
120	0xbd8c724f	-0.0685774
121	0xbe1ec528	-0.15504897
122	0xbe19d404	-0.15022284
123	0xbea38f9e	-0.3194551
124	0x3e30cd77	0.17265879
125	0xbd985be8	-0.07439405
126	0xbe95e8ea	-0.29279262
127	0xbe2c27c2	-0.16812041
128	0x3ee26eb2	0.4422508
129	0xbe5d2cf1	-0.21599175
130	0xbe4b9c22	-0.19883779
131	0xbe8b5d5d	-0.27219668
132	0x3d46e24a	0.04855565
133	0xbe4feccd	-0.20305176
134	0x3da32397	0.079657726
135	0x3ef16333	0.47145995
136	0xbe53ea01	-0.20694734
137	0x3db04779	0.08607382
138	0x3e052b2a	0.13004747
139	0xbc2e530e	-0.010639919
140	0xbd901bdc	-0.07036564
141	0xbe1de3a3	-0.15418868
142	0xbe24991f	-0.16074036
143	0x3dcd0192	0.10010065
144	0xbee7a5d3	-0.452437
145	0x3e2af7b3	0.16696052
146	0xbea44942	-0.3208714
147	0xbe342ef0	-0.1759603
148	0x3dca5d3c	0.09881064
149	0x3d3f7c11	0.04674918
150	0xbc8a7bd3	-0.016904747
151	0xbca5c598	-0.020235822
152	0xbe10c295	-0.14136727
153	0xbda0d8d8	-0.0785386
154	0xbdcec893	-0.1009685
155	0x3e05da5c	0.13071579
156	0xbd77fb9b	-0.060542684
157	0xbcaa4985	-0.02078701
158	0x3dc33657	0.09531849
159	0xbc45169f	-0.012029319
160	0x3f17db5f	0.5931911
161	0x3d8aa912	0.06770529
162	0x3deefcca	0.116693094
163	0x3cfd2cee	0.030905213
164	0x3cbf57ba	0.023357261
165	0x3e2c5ed4	0.16833049
166	0x3e881f1b	0.26586232
167	0x391fa706	0.00015225643
168	0x3e9e95b3	0.30973586
169	0x3e899292	0.26869637
170	0x3eac5bd7	0.33663818
171	0x3e4051f6	0.18781266
172	0xbe07c2d6	-0.13257918
173	0xbe7f8488	-0.249529
174	0xbe86680c	-0.26251256
175	0xbe49bbcc	-0.19700545
176	0xbeb07510	-0.34464312
177	0xbe68f008	-0.22747815
178	0x3c122308	0.008919485
179	0x3e9013b5	0.28140035
180	0xbd38c1a0	-0.04510653
181	0x3e279be2	0.16368058
182	0x3d85ab34	0.06526795
183	0x3ba48968	0.005021263
184	0x3e9745fa	0.29545575
185	0xbe62390e	-0.22092077
186	0xbb9d22f7	-0.004795428
187	0xbe7a14cc	-0.24421996
188	0x3f0391ed	0.5139454
189	0xbe49ee75	-0.1971987
190	0x3eb0e6ac	0.3455099
191	0xbe6e2c84	-0.23259169
192	0xbe38d828	-0.18051207
193	0x3d0f47ef	0.03498071
194	0xbe831fc1	-0.25610164
195	0x3e3e9c4f	0.18614314
196	0x3d98f9d8	0.07469529
197	0x3eaff925	0.3436977
198	0xbd855584	-0.065104514
199	0x3d9ac3d1	0.0755688
200	0xbea2d131	-0.31800225
201	0xbd9b8edc	-0.07595608
202	0xbd639419	-0.05556116
203	0x3cc166bc	0.023608558
204	0x3dbe68e4	0.0929735
205	0xbe80d909	-0.25165585
206	0x3cd1fa22	0.025631968
207	0x3b679320	0.0035335496
208	0xbe4e1fd8	-0.20129335
209	0xbc5f60ab	-0.013633887
210	0x3ee56561	0.44803908
211	0xbe4b15b8	-0.19832504
212	0x3e43f1b3	0.1913517
213	0x3e1f5fe0	0.15563917
214	0xbca8a963	-0.020588582
215	0xbe12483c	-0.14285368
216	0xbed5b377	-0.41738483
217	0xbc57d51e	-0.01317337
218	0xbe67078d	-0.22561474
219	0x3e2ec5b9	0.17067613
220	0x3d550c27	0.052013543
221	0x3eb50693	0.35356578
222	0xbdbced5c	-0.0922496
223	0xbe0796ad	-0.13241072
224	0x3dbd2b4a	0.09236772
225	0xbeb6c7dc	-0.35699356
226	0x3cec7a65	0.028866956
227	0x3f07d5a8	0.5306039
228	0xbcee79d0	-0.02911082
229	0xbe3cfe16	-0.18456301
230	0x3cc2b304	0.023767002
231	0x3cbd4aa1	0.023106875
232	0xbe9f7e03	-0.31150827
233	0x3e9ee61e	0.3103494
234	0x3d8ca527	0.06867438
235	0x3eb7a0f5	0.35864988
236	0xbdcdddfa	-0.10052104
237	0xbc8f153b	-0.017466178
238	0x3e533850	0.2062695
239	0x3e57e1bd	0.21082206
240	0x3e21a9e3	0.15787463
241	0x3d04aa22	0.032388814
242	0x3e428517	0.18996082
243	0x3ce11912	0.027477775
244	0xbecbf5d3	-0.39835986
245	0x3e57cbc1	0.2107382
246	0xbeb06029	-0.34448364
247	0xbefedded	-0.4977869
248	0x3e2d4c50	0.16923642
249	0xbebd6df6	-0.36997956
250	0xbe3b5597	-0.18294369
251	0x3e045c85	0.12925918
252	0x3dc89ffe	0.09796141
253	0x3ef3cbf7	0.4761655
254	0x3caceced	0.021109069
255	0x3eb8f56b	0.3612474

main.0.bias f4 [64]
0	0xbb44ff7a	-0.0030059502
1	0xbd079307	-0.0330992
2	0xbd83f496	-0.064431354
3	0xb8f1663a	-0.00011510817
4	0xbd6fe8d1	-0.05857164
5	0x3dab28ca	0.08357389
6	0xbd85fb5e	-0.06542085
7	0x00000000	0.0
8	0xbc92fefb	-0.01794385
9	0xbceb6f58	-0.028739616
10	0xbc2032d1	-0.009777741
11	0xbd1d20ec	-0.038361475
12	0x3d390434	0.045170024
13	0x3cdee786	0.027210008
14	0xbd0236b3	-0.031790446
15	0x3cf264a0	0.029588997
16	0x3d35425c	0.04425274
17	0x3d37e2ce	0.044894032
18	0x3dbf7e9b	0.0935032
19	0x3d483a91	0.04888398
20	0xbc1f473b	-0.0097215725
21	0xbc4eb919	-0.012617373
22	0x3d4ae333	0.04953308
23	0x3d9ae0a0	0.07562375
24	0x3d18222c	0.037141964
25	0x00000000	0.0
26	0x00000000	0.0
27	0xbce11c1d	-0.027479226
28	0xbd0cf0c0	-0.034409285
29	0x3d44522f	0.04792994
30	0xbb20c377	-0.0024530569
31	0xbd682148	-0.056672364
32	0x3d06ea4d	0.03293829
33	0xbd86b2ff	-0.065771095
34	0x00000000	0.0
35	0x3d94362d	0.07236896
36	0x3d4f5997	0.05062255
37	0x3d08d867	0.033409502
38	0xbcc8ec7b	-0.024526825
39	0xbdfe6be2	-0.12422921
40	0xbcaeed41	-0.021353366
41	0xba739472	-0.00092918344
42	0x3c985006	0.018592846
43	0x3d951e3c	0.072811574
44	0xbdc45db7	-0.09588187
45	0xbdcb8394	-0.09937206
46	0xbd4be154	-0.049775437
47	0x00000000	0.0
48	0x3ca23879	0.019802319
49	0xbd517734	-0.05113907
50	0x00000000	0.0
51	0xbce1710a	-0.027519722
52	0xba80b3f5	-0.0009819256
53	0xbb841b4a	-0.0040315734
54	0x00000000	0.0
55	0x3d4b8742	0.04968954
56	0xbd2046a3	-0.039129864
57	0x3c81d670	0.015849322
58	0xbd3c3fb1	-0.04595918
59	0x3cd6e9a1	0.02623445
60	0xbcf73882	-0.030178312
61	0x3d1a4035	0.03765889
62	0x00000000	0.0
63	0x00000000	0.0

main.2.weight f4 [64, 64]
0	0xbd38a6a0	-0.04508078
1	0xbec99c7c	-0.393772
2	0x37bc16ec	2.242202e-05
3	0xbe9207e0	-0.28521633
4	0x3d90197a	0.07036109
5	0xbf1319e9	-0.5746141
6	0xbe1ca8e5	-0.15298803
7	0x3e80c4aa	0.25150043
8	0xbef2eedf	-0.4744787
9	0xbefd8235	-0.49513403
10	0xbd8a7978	-0.067614496
11	0x3cec0521	0.02881104
12	0x3ef0db7e	0.4704246
13	0xbee3ac52	-0.44467407
14	0x3e0c95ad	0.13728972
15	0x3e6bffa6	0.23046741
16	0x3f150526	0.5821098
17	0x3ed7d2ad	0.4215292
18	0x3ea2e5c1	0.31815913
19	0x3e80df1e	0.25170225
20	0xbd628d9a	-0.055310823
21	0x3dc2d4db	0.09513255
22	0x3e8a4f8e	0.2701382
23	0xbe3e4ff2	-0.18585184
24	0xbea131d2	-0.31483322
25	0x3dcc7e83	0.09985068
26	0x3d3ee4d5	0.04660495
27	0xbec93026	-0.39294547
28	0xbd286839	-0.04111502
29	0x3e29e565	0.16591413
30	0x3e00ad60	0.12566137
31	0x3df03731	0.11729277
32	0x3e958960	0.2920637
33	0x3d049dd1	0.032377068
34	0xbd619fb8	-0.05508396
35	0xbe8d25fb	-0.2756804
36	0x3d299b50	0.041407883
37	0x3e29065d	0.16506334
38	0xbecb6bc3	-0.39730653
39	0xbe111524	-0.14168221
40	0xbe1720fd	-0.14758678
41	0x3d0a026f	0.033693727
42	0xbf04f2da	-0.5193306
43	0x3cfd047a	0.030885924
44	0xbe4d09a4	-0.20023209
45	0xbd6ffcac	-0.058590576
46	0xbdea7c66	-0.11449508
47	0x3e2d238c	0.16908091
48	0xbdb52d65	-0.08846549
49	0xbe761dcf	-0.24034809
50	0xbdbc904e	-0.092072114
51	0x3e5ae47f	0.21376227
52	0xbcbc331c	-0.02297359
53	0xbeaf90aa	-0.34290057
54	0xbc6befeb	-0.014400463
55	0xbc9f5979	-0.019451844
56	0x3dd46595	0.10370938
57	0x3ed767c1	0.42071345
58	0x3e8a6792	0.27032143
59	0x3e328ec4	0.17437273
60	0xbea57e3b	-0.3232287
61	0x3eb92168	0.361583
62	0xbd8f62ed	-0.070012905
63	0xbed106c6	-0.4082548
64	0xbd73d5f7	-0.059530225
65	0xbcfa43aa	-0.030549843
66	0x3d00d4d8	0.031452984
67	0x3f04ab18	0.5182357
68	0x3e6a365c	0.22872299
69	0x3ed50f9a	0.41613466
70	0x3d88cf8d	0.06680212
71	0x3e113976	0.14182076
72	0x3dcb73f5	0.099342264
73	0x3eaf167d	0.34196845
74	0x3ec65a78	0.38740897
75	0xbe22ee3a	-0.15911189
76	0xbd49877e	-0.04920148
77	0x3e78d418	0.24299657
78	0xbe03b53b	-0.12862103
79	0x3e34e686	0.17666063
80	0xbeae5fad	-0.3405737
81	0xbea9a0fc	-0.33130634
82	0xbeb74609	-0.3579562
83	0x3de0d7a2	0.10978629
84	0x3e91eef8	0.2850263
85	0x3dda79ec	0.10667786
86	0xbe131ef3	-0.14367275
87	0x3f5d858f	0.8653192
88	0xbe40978d	-0.18807812
89	0x3ea407b0	0.32037115
90	0xbd20c6dc	-0.039252147
91	0x3efa78f0	0.48920393
92	0x3c256a53	0.01009615
93	0xbeec7bb3	-0.46188125
94	0xbdf83d21	-0.121210344
95	0x3dad3172	0.084566966
96	0x3e04c7fb	0.12966911
97	0xbc241cb6	-0.010016611
98	0xbd910f27	-0.07082968
99	0x3ec4dfb0	0.3845191
100	0xbe9f1dff	-0.31077573
101	0xbe95299d	-0.2913331
102	0x3e941b76	0.289272
103	0x3ec11e7b	0.37718567
104	0x3e5a9db5	0.21349223
105	0xbcc4ff4f	-0.024047522
106	0x3ebf8a94	0.37410414
107	0x3e8dcd30	0.27695608
108	0xbe62bab7	-0.22141539
109	0x3e899142	0.26868635
110	0xbe8ad9c6	-0.27119273
111	0x3d3116f0	0.043234766
112	0xbea90ff3	-0.3301998
113	0x3e4e5195	0.20148309
114	0xbd517cab	-0.051144283
115	0x3ccd8b0b	0.025090715
116	0xbea836a0	-0.32854176
117	0x3efafcfa	0.4902113
118	0x3de4ede2	0.11178185
119	0x3e81ac9a	0.25326997
120	0x3e8d4949	0.27594975
121	0xbf3ccba9	-0.7374826
122	0x3e22f5b4	0.15914041
123	0xbeab705f	-0.3348417
124	0x3f15d8a6	0.58533704
125	0xbd945ccb	-0.07244261
126	0xbdf45af8	-0.119314134
127	0xbddf2eef	-0.10897624
128	0x3e85e3ba	0.26150304
129	0xbcf2ac5b	-0.029623201
130	0xbe4612a8	-0.19343054
131	0xbdca2de4	-0.09872034
132	0xbe99cefa	-0.30040723
133	0x3d44e6b6	0.048071586
134	0xbe28f1d6	-0.16498503
135	0xbe76ae65	-0.24089964
136	0x3beac56f	0.007164649
137	0x3cd29ab9	0.025708543
138	0x3d6ec6d2	0.05829508
139	0x3d8037e5	0.06260661
140	0x3d462261	0.04837263
141	0xbe447fc2	-0.1918936
142	0xbd0696ee	-0.03285878
143	0xbf0d633b	-0.5522954
144	0xbe015026	-0.1262823
145	0x3d41a9b1	0.04728097
146	0xbe328596	-0.17433771
147	0x3cb3a1d9	0.02192776
148	0x3e870e38	0.26378036
149	0xbeafbe20	-0.3432474
150	0x3d533209	0.05156139
151	0xbe2ff5a4	-0.17183548
152	0x3e22325b	0.15839522
153	0x3e0599dd	0.13046975
154	0xbdbdb841	-0.09263659
155	0x3dfc4f79	0.12319846
156	0xbe80dc05	-0.25167862
157	0xbdab0692	-0.083508626
158	0xbdc12edf	-0.09432768
159	0xbe757044	-0.23968607
160	0xbe82eebd	-0.25572768
161	0xbe0c1a03	-0.13681798
162	0xbd193b1f	-0.037409898
163	0xb9b6ce78	-0.00034867576
164	0x3d891932	0.06694259
165	0xbe3d60e9	-0.18494
166	0xbe81c5db	-0.25346264
167	0x3d104fa2	0.035232194
168	0xbe21390c	-0.15744418
169	0x3e31a43c	0.17347807
170	0x3dea6281	0.114445694
171	0xbe6467cf	-0.22305225
172	0xbe8a8985	-0.27058044
173	0x3da16782	0.07881071
174	0x3c04a96e	0.008097036
175	0xbe28abf4	-0.16471845
176	0xbdcdf470	-0.100563884
177	0xbc8a1c49	-0.01685919
178	0x3e364a47	0.17801772
179	0xbe2eff9d	-0.17089696
180	0xbe8f3186	-0.2796747
181	0xbe93f4a7	-0.28897592
182	0x3e0a19b0	0.13486362
183	0x3db45c88	0.088067114
184	0x3e2bcba3	0.167769
185	0xbd4f9e96	-0.05068835
186	0x3d3c4853	0.04596741
187	0x3ea4d7d0	0.32195902
188	0x3e86adcd	0.26304474
189	0xbde731d2	-0.11288799
190	0xbe891806	-0.2677614
191	0xbbb2ca5c	-0.005456252
192	0x3dffde46	0.12493567
193	0x3de80e06	0.113308
194	0xbe386b16	-0.180096
195	0xbeefc0de	-0.46826833
196	0xbd72a271	-0.059236947
197	0xbe914e2d	-0.28379956
198	0xbc3caf01	-0.011516334
199	0xbe187485	-0.14888199
200	0xbdad6fa3	-0.08468559
201	0xbcaf804b	-0.02142348
202	0x3aa14c6e	0.0012306103
203	0xbe9588d8	-0.29205966
204	0x3f16cf2e	0.5890988
205	0xbebb4317	-0.36574623
206	0x3e5771d2	0.21039513
207	0x3f23c86f	0.6397771
208	0x3e0b4678	0.136011
209	0x3eddee49	0.4334586
210	0xbe4844f9	-0.19557561
211	0x3eafaf0e	0.34313244
212	0xbc773c61	-0.015090079
213	0xbdab18a3	-0.083543085
214	0x3eb1e226	0.3474285
215	0xbf15b1e1	-0.58474547
216	0xbddab4fc	-0.10679051
217	0x3d3b39d9	0.045709465
218	0xbeae693f	-0.3406467
219	0xbed24014	-0.41064513
220	0xbe3b928d	-0.18317623
221	0x3e559e16	0.20861086
222	0xbdea95cc	-0.11454353
223	0x3ebf218b	0.3733028
224	0xbde4affa	-0.11166377
225	0xbe64fe18	-0.22362554
226	0xbec1d536	-0.3785798
227	0xbe961a6d	-0.29317036
228	0xbd195e60	-0.03744352
229	0x3db21e88	0.086972296
230	0x3ca99aba	0.020703662
231	0xbee12eea	-0.43981105
232	0xbecf0473	-0.40433082
233	0xbe026586	-0.1273404
234	0xbe6defe8	-0.23236048
235	0x3eb360e3	0.35034856
236	0xbc61310f	-0.013744607
237	0x3cc05757	0.023479147
238	0x3d9b2944	0.0757623
239	0xbea3993a	-0.3195284
240	0xbdd663e1	-0.10468269
241	0xbd5afd02	-0.053463943
242	0x3e491905	0.1963845
243	0x3d412652	0.047155686
244	0x3e8039df	0.25044152
245	0xbec4d8f6	-0.38446778
246	0xbeaa86c5	-0.33305946
247	0xbc44ccc7	-0.012011713
248	0x3c81036d	0.015748704
249	0x3f1acc91	0.60468394
250	0x3e0f0caa	0.13969675
251	0x3c870d7d	0.016485924
252	0xbf2611b0	-0.6487074
253	0x3eaf6d47	0.3426306
254	0x3d3c8d83	0.046033394
255	0x3ce9fe1e	0.028563555

main.2.bias f4 [64]
0	0x3d037281	0.03209162
1	0xbdd569c2	-0.10420562
2	0xbcef6d8f	-0.029227046
3	0x3d990748	0.07472092
4	0x3c303b67	0.01075635
5	0x3d99c101	0.07507516
6	0xbbd57a8a	-0.006514852
7	0x3d787286	0.060656093
8	0xbd77c21f	-0.060487863
9	0x3cda89f9	0.026677119
10	0xbcd10298	-0.025513932
11	0x00000000	0.0
12	0xbc0c72f9	-0.0085723335
13	0xbb929d47	-0.0044743153
14	0x3d5e0677	0.054205384
15	0x3d6a710a	0.05723671
16	0x3d33956d	0.043843675
17	0xbc252e58	-0.01008185
18	0x3de26524	0.11054447
19	0x3d24f0b2	0.040268607
20	0xbd1d4ef9	-0.038405392
21	0xbcbe4b3b	-0.023229232
22	0x00000000	0.0
23	0x3c7e0fec	0.015506726
24	0x3dcdf61c	0.10056707
25	0xbbd4b795	-0.0064916112
26	0x3d5e05de	0.054204814
27	0x3dd88e38	0.10574001
28	0xbc3cb526	-0.0115177985
29	0xbc446704	-0.011987451
30	0x3d9262a3	0.0714772
31	0x3d918153	0.07104745
32	0xbd9b3b57	-0.075796776
33	0xbc5fa72a	-0.013650695
34	0x3d953e44	0.07287267
35	0xbce21574	-0.02759812
36	0xbb86740f	-0.0041031907
37	0xbcd6af75	-0.026206711
38	0x3d395e63	0.04525603
39	0x3d238bd5	0.039928276
40	0x3da897e3	0.08232095
41	0x3bdfe714	0.0068329666
42	0x3c91ee92	0.017813955
43	0xbcd16372	-0.025560115
44	0xbcc974ef	-0.024591891
45	0xbcd5e0d8	-0.02610819
46	0xbc15ad5b	-0.009135569
47	0x3d01a43d	0.03165077
48	0x3da07b80	0.07836056
49	0xbb02d6ea	-0.0019964525
50	0x3d9a7120	0.07541108
51	0x3d254c2b	0.040355843
52	0xbc1e5961	-0.009664864
53	0x3d357b68	0.044307142
54	0x398d2ead	0.00026928392
55	0xbc734c8e	-0.014849795
56	0xbd80a2e9	-0.06281073
57	0x3dabce3f	0.08388948
58	0x3cf65932	0.030071829
59	0x3d823e7b	0.063595735
60	0x3d48b51f	0.049000856
61	0xbc940172	-0.018067095
62	0x3caa49c9	0.020787137
63	0xba42b931	-0.00074281084

dist.fc_mean.weight f4 [1, 64]
0	0x3f6b8bd1	0.9201022
1	0xbf2705cd	-0.65243226
2	0x3e3c2ca1	0.183764
3	0x3f9bfd0e	1.2186601
4	0x3eb9ffe4	0.36328042
5	0xbeef7bb6	-0.4677407
6	0x3eecff60	0.46288586
7	0x3f0b8d0a	0.54512084
8	0x3e1f728a	0.15571037
9	0xbe8e6aa0	-0.27815723
10	0x3d077e7a	0.0330796
11	0x3d9fed48	0.0780893
12	0x3f6a3594	0.91488004
13	0xbf88a132	-1.0674193
14	0x3ee2a0aa	0.44263202
15	0x3f78f6bf	0.97251505
16	0x3f4dbcbe	0.8036612
17	0xbf13b174	-0.57692647
18	0x3f331334	0.69951177
19	0x3f13e3f7	0.5776972
20	0x3ce51f76	0.027969103
21	0x3db058a3	0.08610656
22	0x3d2f58ba	0.042809226
23	0x3ec53680	0.38518143
24	0xbea82047	-0.32837126
25	0xbf09737b	-0.53691834
26	0xbf7691e7	-0.9631638
27	0x3ee522fa	0.44753247
28	0xbf0099fd	-0.5023497
29	0xbe90f1a5	-0.2830936
30	0x3fd27947	1.6443261
31	0x3ebec008	0.37255883
32	0xbdd9b231	-0.106296904
33	0xbfa10b01	-1.2581483
34	0x3f813ba4	1.0096326
35	0xbc7f0bed	-0.015566808
36	0xbf7336fd	-0.9500578
37	0x3eb536ed	0.35393468
38	0xbe2cf5d7	-0.16890655
39	0x3faa26f8	1.3293142
40	0x3fc824f2	1.5636275
41	0xbf534a96	-0.82535684
42	0xbda6f122	-0.08151461
43	0xbe71a5cc	-0.23598403
44	0xbcf95518	-0.030436084
45	0x3e069689	0.13143362
46	0xbf07e476	-0.5308298
47	0xbf3da6f9	-0.74082905
48	0xbebc5440	-0.36783028
49	0xbcc41f26	-0.023940634
50	0xbf93c414	-1.1544213
51	0x3fc77896	1.5583675
52	0xbf04d839	-0.5189243
53	0x3fca18f2	1.5788863
54	0x3f261d69	0.64888626
55	0xbefb93ba	-0.49136144
56	0x3f869038	1.0512762
57	0x3f839138	1.0278692
58	0x3f958830	1.1682186
59	0x3f8d76a8	1.1051836
60	0x3f37ddc9	0.7182279
61	0xbda5d0e5	-0.08096484
62	0x3fda1d77	1.7040242
63	0xbf39b436	-0.72540605

main.0.weight f4 [32, 14]
0	0x3e4090da	0.18805256
1	0xbee0007e	-0.43750376
2	0x3a4567c0	0.00075304136
3	0xbe6a0469	-0.22853245
4	0x3eddf001	0.4334717
5	0xbeffeefe	-0.49987024
6	0x3ec893a2	0.39175135
7	0xbe2b7b66	-0.16746292
8	0x3e0880a2	0.1333032
9	0x3d1f9034	0.038955882
10	0xbe8ce2c3	-0.27516755
11	0xbd31bbb4	-0.0433919
12	0x3d0aeda9	0.033918057
13	0xbe737fb9	-0.23779191
14	0xbdf99527	-0.12186652
15	0x3e843a8c	0.25825918
16	0xbd4699a5	-0.04848637
17	0x3e9ca17b	0.3059195
18	0xbf02a2a0	-0.51029396
19	0xbe39b5cf	-0.1813576
20	0x3e7e724d	0.2484829
21	0xbe38102a	-0.17974916
22	0xbdc7acb9	-0.09749741
23	0xbda4d003	-0.080474876
24	0x3dbd6ff2	0.092498675
25	0xbe9f84fe	-0.31156152
26	0x3e45e8b2	0.19327047
27	0xbdcc7ca3	-0.0998471
28	0xbf0dfdf5	-0.5546563
29	0xbe7a73d9	-0.24458255
30	0xbca05e51	-0.019576224
31	0xbe34d053	-0.17657594
32	0x3ec69dad	0.38792172
33	0x3e39fb76	0.18162331
34	0x3e3a1c69	0.181749
35	0xbdd5eda3	-0.10445716
36	0xbce9c234	-0.028534986
37	0x3ecde106	0.40210742
38	0xbd6e9dd4	-0.058255985
39	0xbaaf81c6	-0.0013390116
40	0x3e8cdfc6	0.27514476
41	0x3cba0c9a	0.022711087
42	0xbcccf034	-0.025016882
43	0xbed167f2	-0.40899616
44	0xbedbb792	-0.4291349
45	0xbd1da176	-0.03848406
46	0x3cee517c	0.02909159
47	0xbddf9458	-0.10916966
48	0xbd2ea87f	-0.04264116
49	0x3ea642f3	0.32472953
50	0x3e0edb5b	0.13950865
51	0xbe0e60b8	-0.13904083
52	0x3e42b043	0.19012551
53	0x3ea1a780	0.31573105
54	0xbcd323bd	-0.025773877
55	0xbeafd8c4	-0.34345067
56	0x3d81b9a8	0.06334239
57	0xbdcaec32	-0.09908332
58	0x3e54ebae	0.2079303
59	0xbe84d118	-0.25940776
60	0x3b5fc4f3	0.003414449
61	0xbebd8e04	-0.37022412
62	0xbb8250d8	-0.0039769225
63	0x3eb0f41c	0.3456124
64	0xbec6f81a	-0.3886116
65	0xbaeefdd0	-0.0018233601
66	0x3da28728	0.07935935
67	0xbeb382fd	-0.35060874
68	0x3e8a3966	0.26996917
69	0x3dd3915a	0.10330458
70	0x3e1ab349	0.15107454
71	0xbd5b5ecb	-0.0535572
72	0xbde89ce8	-0.113580525
73	0x3dc3f2fb	0.09567829
74	0x3e25f2c7	0.16205893
75	0x3e4e078d	0.20120068
76	0xbe14fc98	-0.14549482
77	0x3ee7a43b	0.45242485
78	0xbe6219af	-0.2208011
79	0x3e39462f	0.18093179
80	0xbeeb4121	-0.45948127
81	0xbcb6b496	-0.022302907
82	0x3df39d5a	0.11895247
83	0xbe7fedba	-0.24993029
84	0xbeb4cb97	-0.35311577
85	0x3e7e8466	0.24855193
86	0xbe63d6de	-0.22249934
87	0xbe2f293a	-0.1710557
88	0xbdf49cf7	-0.11944001
89	0xbe33ab15	-0.17545731
90	0xbe1ef204	-0.15522009
91	0xbe1eae29	-0.15496124
92	0xbcf1d057	-0.02951829
93	0x3e22123a	0.15827265
94	0xbeb28c31	-0.34872583
95	0xbebb91bd	-0.36634627
96	0x3d2da183	0.042390358
97	0x3e8950a1	0.26819327
98	0xbe1bfb0b	-0.15232484
99	0x3eec1c23	0.46115217
100	0xbe06c35a	-0.13160458
101	0x3e3365d0	0.17519307
102	0x3f12c783	0.5733568
103	0x3e8d80ef	0.2763743
104	0x3cc1e2c1	0.023667695
105	0x3eaddf54	0.33959448
106	0x3e2eeec3	0.17083268
107	0xbe988af2	-0.29793507
108	0x3db48b6c	0.08815655
109	0xbe62803c	-0.2211923
110	0x3d7a51b2	0.061113067
111	0xbe89a719	-0.26885298
112	0xbda53a6f	-0.08067786
113	0x3d8eedaf	0.06978928
114	0xbea1d5b8	-0.31608367
115	0xbebe1f41	-0.3713322
116	0x3d831332	0.064001456
117	0x3e159e35	0.14611132
118	0xbc5df41d	-0.013546971
119	0x3c54d595	0.012990375
120	0xbcc0b5e3	-0.02352423
121	0x3e68fcee	0.22752735
122	0x3c7b5f81	0.015342594
123	0xbee892c0	-0.4542446
124	0xbe90cff0	-0.28283644
125	0xbf3336f5	-0.7000573
126	0x3d7aa111	0.06118876
127	0x3eca2aaf	0.3948569
128	0x3d5c9da8	0.05386129
129	0xbdc42bbc	-0.09578654
130	0x3dcd342f	0.10019719
131	0xbca5c158	-0.020233795
132	0xbd67d8d0	-0.056603253
133	0x3d4ebf7e	0.05047559
134	0x3e3dc5b9	0.18532456
135	0x3e822e97	0.2542617
136	0x3db41c94	0.08794513
137	0xbe21a902	-0.15787128
138	0xbda604f2	-0.08106412
139	0xbf205cbe	-0.62641513
140	0x3f186545	0.59529525
141	0xbebc34c9	-0.36759022
142	0x3d0ad19b	0.0338913
143	0x3ed724a2	0.42020136
144	0x3e138304	0.14405447
145	0xbc1c655a	-0.0095456485
146	0xbdfbc682	-0.12293722
147	0x3c792e4f	0.015208795
148	0xbeb531fe	-0.35389704
149	0xbe120f80	-0.14263725
150	0xbead918d	-0.3390011
151	0xbe79a07d	-0.24377628
152	0xbe6b10c7	-0.22955619
153	0x3e5741a9	0.21021141
154	0xbe885a84	-0.26631558
155	0xbe65f0ad	-0.22455092
156	0x3cf2d824	0.02964408
157	0x3ccdb6b3	0.025111532
158	0x3e82a5c4	0.25517094
159	0xbc709f88	-0.014686473
160	0xbe3e91ae	-0.1861026
161	0xbe9bbb25	-0.30416217
162	0x3e3f5e32	0.18688276
163	0xbda1ab0e	-0.07893954
164	0xbda4d968	-0.080492795
165	0x3e747972	0.23874453
166	0x3f04f3ea	0.51934683
167	0x3e2420a8	0.16028082
168	0xbe552425	-0.2081457
169	0xbc9b8744	-0.018985398
170	0xbe11c53d	-0.14235397
171	0xbd9cef3b	-0.07662817
172	0x3b02921c	0.0019923514
173	0x3d70e05f	0.058807727
174	0xbe97f286	-0.29677218
175	0xbda009da	-0.07814379
176	0x3dec43eb	0.11536392
177	0xbe917a44	-0.28413594
178	0xbe03fee3	-0.128902
179	0x3da61129	0.08108742
180	0xbdeb3278	-0.114842355
181	0xbe4243c3	-0.18971162
182	0xbe9515e3	-0.2911826
183	0xbdcedab1	-0.10100306
184	0x3e6d456c	0.23171014
185	0x3ec05664	0.3756591
186	0x3e649270	0.22321486
187	0x3d4733a0	0.048633218
188	0x3e4501a2	0.19238904
189	0xbf08df89	-0.5346609
190	0x3e144a9e	0.14481589
191	0x3f27c601	0.65536505
192	0x3e995c6a	0.2995332
193	0x3d231be4	0.03982152
194	0xbe70feb3	-0.2353466
195	0xbe89c698	-0.26909328
196	0x3f2480a9	0.6425882
197	0xbe597cb9	-0.21238984
198	0x3e4712c4	0.19440752
199	0x3c292bdb	0.010325397
200	0xbed7f679	-0.4218023
201	0xbd99e9b8	-0.075152814
202	0x3ee1d533	0.4410797
203	0xbdae9e03	-0.08526232
204	0x3cc00318	0.023438975
205	0x3eab350f	0.33438918
206	0xbe62fac8	-0.22165978
207	0x3e3b111c	0.18268245
208	0xbf87527a	-1.0572045
209	0xbdbfd800	-0.093673706
210	0x3e14bee6	0.14525947
211	0x3ec04d4d	0.37558976
212	0xbcd63b4d	-0.026151324
213	0xbeb43a92	-0.35200936
214	0x3ee3518f	0.44398162
215	0x3d9681c4	0.073489696
216	0x3e407b6c	0.18797082
217	0xbcb011b6	-0.02149282
218	0xbea9366d	-0.33049336
219	0xbe582787	-0.21108828
220	0xbdac7160	-0.08420062
221	0xbe751648	-0.23934281
222	0x3e8950ce	0.26819462
223	0xbd2cef51	-0.042220417
224	0x3d339f20	0.043852925
225	0x3e58e33d	0.21180435
226	0xbea55365	-0.32290187
227	0xbdc9b7f4	-0.098495394
228	0x3e4a4e6c	0.19756478
229	0xbebcb06c	-0.3685335
230	0x3dda3607	0.10654836
231	0x3cd755f0	0.026286095
232	0xba436d41	-0.000745494
233	0xbe419d3e	-0.1890764
234	0x3f01290a	0.50453246
235	0xbe0da325	-0.13831766
236	0xbf176148	-0.59132814
237	0x3d8a60a4	0.06756714
238	0xbdd6c137	-0.104860716
239	0x3ded371d	0.11582778
240	0x3d94867a	0.07252212
241	0x3cb779d1	0.022396954
242	0x3df53f56	0.11974971
243	0xbad4ef1b	-0.0016245575
244	0x3f5ed362	0.87041295
245	0x3dc5ab4c	0.09651813
246	0x3e5ce71c	0.21572536
247	0xbdb8f286	-0.09030633
248	0xbea46b57	-0.32113144
249	0xbe4f49ed	-0.20243044
250	0xbe63e78a	-0.22256294
251	0x3ddbd734	0.10734406
252	0x3e8d78d4	0.27631247
253	0x3e1d9525	0.15388925
254	0x3e9a4be8	0.30136037
255	0xbcfe1d44	-0.031019814

main.0.bias f4 [32]
0	0xbcce4123	-0.025177544
1	0xbc157fd0	-0.009124711
2	0x3cd3489b	0.025791457
3	0xbd16bf9a	-0.03680382
4	0x3d0a9b27	0.03383937
5	0x3e0dbdbc	0.13841909
6	0x00000000	0.0
7	0xbdb4df3b	-0.0883164
8	0x3ced4e58	0.028968021
9	0x3c6a88c8	0.014314838
10	0xbd8c69b0	-0.06856096
11	0xbddd76b0	-0.108136535
12	0xbd078b93	-0.033092093
13	0xbd4fc295	-0.050722677
14	0x3d6b0b7a	0.05738399
15	0x3da0e6d7	0.07856529
16	0xbd09b9ab	-0.033624332
17	0xbd2478f6	-0.04015442
18	0xbd96360f	-0.073345296
19	0x3da625af	0.08112656
20	0x00000000	0.0
21	0x3d80c1d8	0.06286973
22	0xbc89d3e9	-0.01682468
23	0xbda35559	-0.07975263
24	0xbccd48d5	-0.025059143
25	0xbdcf673e	-0.10127114
26	0xbcd109f4	-0.025517441
27	0x3d16bdb8	0.036802024
28	0xbc9033e8	-0.017602876
29	0x3cf5a223	0.02998454
30	0x3cd9b66d	0.026576245
31	0x3c926944	0.01787246

main.2.weight f4 [32]
0	0x3f7f770a	0.99791014
1	0x3f86a241	1.0518266
2	0x3f81c0da	1.0136979
3	0x3f707dd1	0.9394198
4	0x3f7421bf	0.9536399
5	0x3f7ad6b4	0.9798386
6	0x3f767dad	0.96285516
7	0x3f72da32	0.9486419
8	0x3f7c2067	0.9848694
9	0x3f6cdd73	0.92525405
10	0x3f7877eb	0.9705798
11	0x3f83073d	1.0236584
12	0x3f5b51e6	0.8567184
13	0x3f637db9	0.8886371
14	0x3f382f7b	0.7194745
15	0x3f913b5a	1.1346238
16	0x3f88fea5	1.0702711
17	0x3f97e359	1.1866256
18	0x3f2bea1d	0.67154104
19	0x3fdc7c8c	1.7225509
20	0x3f712eee	0.94212234
21	0x3f7fc5c5	0.9991115
22	0x3f4a5847	0.7904095
23	0x3f5df084	0.8669512
24	0x3f7e0a85	0.992348
25	0x3f773ebe	0.9658011
26	0x3f843393	1.0328239
27	0x3f6e201c	0.93017745
28	0x3f8b8cf6	1.0902393
29	0x3f842f6a	1.032697
30	0x3fd4b019	1.6616241
31	0x3f831d88	1.0243387

main.2.bias f4 [32]
0	0x3d4fa494	0.050694063
1	0xbd7f24d7	-0.062290993
2	0xbd44d389	-0.0480533
3	0x3d88123b	0.06644102
4	0x3cdcd577	0.026957257
5	0xbe4c5001	-0.19952394
6	0x3d94b33f	0.07260751
7	0xbe2c2f4d	-0.16814919
8	0x3d2d90cb	0.042374413
9	0xbce1c315	-0.027558843
10	0x3b34a06a	0.0027561435
11	0x3c55fd71	0.013060913
12	0x3e326d23	0.17424445
13	0xbde24cef	-0.1104983
14	0x3d0b0329	0.03393856
15	0xbcc9f7d0	-0.024654299
16	0xbdbd94ff	-0.092569344
17	0xbd2bf5fa	-0.04198263
18	0xbe1720a3	-0.14758544
19	0xbe439e95	-0.19103463
20	0x3bcc54e9	0.006235708
21	0x3c07da8b	0.008291851
22	0xbb80b68d	-0.0039280117
23	0xbd8d9796	-0.06913678
24	0x3d1edd55	0.038785297
25	0x3d92082e	0.071304664
26	0xbde17469	-0.110085316
27	0xbe036fad	-0.1283557
28	0xbdaf4337	-0.08557742
29	0xbe809a5a	-0.2511776
30	0xbe0d06a0	-0.13772058
31	0x3d8bbba1	0.06822897

main.3.weight f4 [64, 32]
0	0xbdee29ea	-0.11629088
1	0x3dc590e7	0.096467786
2	0xbe269f91	-0.16271807
3	0xbec0dff9	-0.37670878
4	0xbe5c63f4	-0.21522504
5	0x3cedb13b	0.029015174
6	0x3bd36c02	0.0064520845
7	0x3d93094d	0.07179508
8	0x3e440cd3	0.19145517
9	0xbe116a14	-0.14200622
10	0x3ea3d881	0.32001117
11	0xbeac9cc4	-0.33713353
12	0x3e0a96a3	0.13534026
13	0xbd42d318	-0.047564596
14	0xbe8482e0	-0.258811
15	0xbd304bac	-0.043040916
16	0x3e110006	0.14160165
17	0x3d730814	0.059333876
18	0x3e0f837e	0.14015004
19	0xbd824bf1	-0.06362141
20	0xbde79ba8	-0.11308986
21	0xbbb62601	-0.0055587296
22	0xbdc9c636	-0.09852259
23	0xbe6fb93f	-0.2341051
24	0xbd66d108	-0.05635169
25	0x3e724418	0.23658788
26	0xbc6edeed	-0.014579517
27	0x3c00da0f	0.007864489
28	0xbe115a79	-0.14194669
29	0xbe4bec82	-0.1991444
30	0x3dc4e893	0.096146725
31	0x3d39f66a	0.045401014
32	0xbe031236	-0.12799916
33	0xbd9b78af	-0.07591378
34	0xbd2fc44a	-0.042911805
35	0xbe7383c1	-0.23780729
36	0x39ae06ee	0.0003319303
37	0xbeba996c	-0.36445177
38	0x3e5af79e	0.21383521
39	0xbf16f44b	-0.5896651
40	0xbe19097e	-0.14945027
41	0xbd9f5f29	-0.07781822
42	0xbe67c7f1	-0.22634865
43	0x3e6dc4f7	0.23219667
44	0x3d8a77fe	0.06761168
45	0x3c990b02	0.018682007
46	0xbda14023	-0.07873561
47	0x3d23a836	0.03995534
48	0xbd642691	-0.055700842
49	0xbf47ff6d	-0.78124124
50	0x3e9720ea	0.295173
51	0xbf1f7cd3	-0.6229984
52	0xbddd0e98	-0.10793799
53	0x3f23f818	0.64050436
54	0xbddc91b8	-0.10769981
55	0x3e3ab857	0.18234383
56	0x3e2a4d0a	0.1663095
57	0x3e8edd26	0.27903098
58	0x3e356724	0.17715126
59	0x3e720b98	0.23637235
60	0x3eb48023	0.3525401
61	0xbe233d28	-0.15941298
62	0x3e930010	0.28710985
63	0x3e310831	0.17288281
64	0xbe954208	-0.2915194
65	0x3e9da9fb	0.30793747
66	0x3d4ef853	0.05052979
67	0xbd9f5b97	-0.07781141
68	0xbc8ed215	-0.01743416
69	0xbcf21f03	-0.029555803
70	0xbe9d7a49	-0.3075736
71	0x3e3458bd	0.17611976
72	0x3d9b118d	0.07571707
73	0x3df0bb25	0.11754445
74	0xbde95ff4	-0.11395255
75	0xbd070abd	-0.032969225
76	0x3b213aed	0.0024601773
77	0xbd0da532	-0.03458137
78	0xbe71116a	-0.23541799
79	0x3a9db033	0.0012030661
80	0x3d151906	0.036400817
81	0x3de22b34	0.110433966
82	0xbd7bf16e	-0.061509542
83	0x3e932cc4	0.2874509
84	0x3e9c2003	0.30493173
85	0x3dfa48de	0.122209296
86	0x3d3a5ff6	0.04550167
87	0xbe994f0e	-0.29943126
88	0xbd6179af	-0.055047687
89	0xbdf8495b	-0.121233664
90	0xbeb773e4	-0.35830605
91	0x3e70b9fc	0.23508447
92	0x3e3ad8f6	0.18246827
93	0x3f0f6cb2	0.5602523
94	0xbc89dc09	-0.016828554
95	0xbeabb00e	-0.33532757
96	0x3e46c77f	0.19412039
97	0x3d306bd3	0.04307158
98	0x3c57400e	0.01313783
99	0xbc15e4dc	-0.009148803
100	0x3e212068	0.15735018
101	0xbe738bb0	-0.23783755
102	0xbe5134b8	-0.20430267
103	0x3df9814a	0.12182863
104	0xbd7baaac	-0.061442062
105	0xbd9adf5d	-0.075621344
106	0xbc26d7e7	-0.010183311
107	0x3e16a5fe	0.14711758
108	0x3e5b09ec	0.21390504
109	0x3e1bd887	0.15219317
110	0x3dd0b1c2	0.101901546
111	0x3e979ad4	0.29610312
112	0x3cb321e3	0.021866744
113	0xbd35a104	-0.04434301
114	0x3c75d674	0.015004743
115	0x3e33b85d	0.17550798
116	0xbd947714	-0.07249275
117	0x3ec5cf49	0.3863471
118	0xbed9ec06	-0.42562884
119	0xbe48b1f5	-0.19599135
120	0x3d783218	0.060594648
121	0x3d192840	0.0373919
122	0xbe950d30	-0.29111624
123	0x3e31d7e4	0.17367512
124	0x3ed193e4	0.40933144
125	0xbe048896	-0.12942728
126	0x3e2157cc	0.15756148
127	0xbd46c158	-0.04852423
128	0x3d6fc787	0.058539893
129	0xbdcc0a94	-0.09962955
130	0x3cd6adee	0.026205983
131	0xbe5b2b68	-0.21403277
132	0xbeb2ace0	-0.34897518
133	0xbe1e188c	-0.15439051
134	0xbe5ea021	-0.21740772
135	0x3e59df2b	0.21276538
136	0xbe08bb93	-0.13352804
137	0x3eab12d3	0.334128
138	0x3e4d4b5f	0.20048283
139	0xbe9570ce	-0.29187626
140	0xbda48a23	-0.0803416
141	0xbe1345fd	-0.14382167
142	0x3c4fd309	0.012684592
143	0xbc4febac	-0.012690466
144	0xbd8278a2	-0.06370665
145	0xbdf55266	-0.11978607
146	0x3edccd3f	0.4312534
147	0xbb63ada7	-0.0034740956
148	0x3e569350	0.20954633
149	0x3e32736c	0.17426842
150	0xbe9a4682	-0.30131918
151	0x3e7097cf	0.2349541
152	0xbe8437b7	-0.25823757
153	0x3e764248	0.24048722
154	0x3ec00056	0.37500256
155	0x3e3133a3	0.17304854
156	0xbe9a1607	-0.3009493
157	0x3d86726f	0.06564795
158	0x3efe1738	0.4962709
159	0xbde112fd	-0.1098995
160	0xbd902228	-0.07037765
161	0x3e2c3eb9	0.16820802
162	0xbe7cdcc4	-0.2469359
163	0x3dd123d4	0.10211912
164	0xbdcb581e	-0.099289164
165	0x3cf5917f	0.029976605
166	0x3cb4d951	0.02207628
167	0x3cfb2cf7	0.03066109
168	0x3cb61f10	0.022231609
169	0x3c6e3efc	0.014541384
170	0xbe04c5f8	-0.12966144
171	0xbec59c58	-0.38595843
172	0xbe0fbdf0	-0.14037299
173	0x3e503677	0.20333277
174	0xbed2ebef	-0.41195628
175	0x3ef485ec	0.47758424
176	0x3d55db24	0.052210942
177	0xbe2c71e0	-0.16840315
178	0xbe0cfc2f	-0.13768075
179	0x3f2f29de	0.6842326
180	0xbe82c683	-0.25542077
181	0xbd8ea5de	-0.069652304
182	0xbec9c54e	-0.39408344
183	0x3dde2bd7	0.108482055
184	0x3d78dc4c	0.060756966
185	0xbd8ac69e	-0.067761645
186	0xbe5c581a	-0.21517983
187	0xbc4742c2	-0.012161912
188	0x3d5a424d	0.053285886
189	0x3dff45a0	0.12464452
190	0x3e8f5cde	0.2800054
191	0xbcd9bd81	-0.02657962
192	0x3dd5c2a2	0.10437514
193	0x3bab68a2	0.005230979
194	0x3de5706f	0.11203086
195	0x3e72eaaa	0.2372233
196	0x3e0b660c	0.13613147
197	0x3ee8dbc3	0.45480165
198	0xbecc7799	-0.39934996
199	0x3c80fcd5	0.01574556
200	0xbd95d670	-0.07316291
201	0x3d698a47	0.057016637
202	0x3eb2ba8e	0.34907955
203	0xbd3c4cbe	-0.045971625
204	0xbdb35f8d	-0.08758459
205	0xbe2ba99f	-0.16763924
206	0x3dc46626	0.09589796
207	0x3dd222cd	0.10260544
208	0xbe023f10	-0.12719369
209	0xbe97d717	-0.29656288
210	0xbdb80b46	-0.08986525
211	0x3abc64c3	0.0014373291
212	0x3e22e1c0	0.1590643
213	0xbed675b0	-0.41886663
214	0x3dd07c10	0.10179913
215	0x3dbb6d7b	0.09151741
216	0x3b3d4fb5	0.002888662
217	0xbda2ddf6	-0.07952492
218	0xbd57327b	-0.052538376
219	0xbd3a8d32	-0.04554481
220	0x3dcaeeed	0.09908853
221	0x3e992a1d	0.29914942
222	0x3ea50f62	0.322383
223	0x3d90f289	0.0707751
224	0x3dc461d5	0.095889725
225	0x3e3173e5	0.17329367
226	0x3e22e7ab	0.15908687
227	0x3e19efd8	0.150329
228	0x3e899e7f	0.26878735
229	0x3ea384a7	0.31937143
230	0x3dd3f204	0.10348895
231	0xbe22649c	-0.15858692
232	0x3dacd9d1	0.08439983
233	0x3e6f48e5	0.23367651
234	0x3de8b5f2	0.11362828
235	0x3e2caca9	0.1686274
236	0xbdc2e38a	-0.09516056
237	0x3d9e26ac	0.0772222
238	0x3dde576d	0.10856519
239	0xbc9dbdd8	-0.019255564
240	0x3e3be636	0.18349537
241	0xbe9e05df	-0.30863854
242	0x3e8548be	0.2603206
243	0x3eb32c8a	0.34994918
244	0x3e2408d4	0.16018993
245	0x3db50368	0.0883854
246	0x3c0351f7	0.008015147
247	0x3da94024	0.08264187
248	0x3e31249e	0.17299125
249	0x3e346f0f	0.1762049
250	0x3dd87c6d	0.10570607
251	0x3d8c660b	0.06855401
252	0xbcdb65f4	-0.026782013
253	0x3d8c34cc	0.06846008
254	0xbe8ee9d6	-0.27912778
255	0x3e9ac756	0.30230206

main.3.bias f4 [64]
0	0x3d49ab26	0.049235485
1	0xbdc210a9	-0.09475834
2	0xbc4a45b2	-0.012345718
3	0xbd6c2179	-0.05764911
4	0xbbf468f9	-0.007458803
5	0xbbb03437	-0.0053773182
6	0xbc92414c	-0.017853402
7	0xbdba165c	-0.09086296
8	0xbcc92a09	-0.024556177
9	0x3cb3621a	0.021897364
10	0xbbfe6c58	-0.0077643804
11	0xbce31f3d	-0.027724857
12	0xbdb4b40c	-0.08823404
13	0x3c9710e9	0.01844068
14	0xbcc67900	-0.02422762
15	0xbccb7408	-0.024835601
16	0xbd9ea75f	-0.07746767
17	0xbc8327d7	-0.016010208
18	0xbb6d610e	-0.003622118
19	0xbceddafb	-0.029035082
20	0xbde582b2	-0.11206569
21	0xbdc7a267	-0.09747773
22	0x3c2130ec	0.009838324
23	0xbcb063d1	-0.021531971
24	0xbc2fa8a4	-0.010721359
25	0x3c8ad4a4	0.016947098
26	0xbde2fae3	-0.11083009
27	0xbc3a0901	-0.011354686
28	0xbcce7a80	-0.025204897
29	0xbd91873f	-0.07105874
30	0xbc8938dc	-0.016750745
31	0xbcb12cdd	-0.021627838
32	0x3c787377	0.015164248
33	0xbd477d0b	-0.048703235
34	0xbc4795ad	-0.012181682
35	0xbe1831fe	-0.1486282
36	0xbdc72663	-0.097241186
37	0xbc3f2249	-0.011665889
38	0xbbcf7be4	-0.0063319076
39	0x3b8e19e2	0.0043365816
40	0x3d85b598	0.06528777
41	0xbbf851bd	-0.0075781033
42	0x3d060483	0.032719146
43	0xbdcf3405	-0.10117344
44	0xbd206676	-0.039160214
45	0xbc88121f	-0.016610203
46	0xbd31e8ae	-0.04343479
47	0x3b2db6d8	0.0026506688
48	0xbd2c32bc	-0.04204057
49	0x3b8a8da6	0.0042283116
50	0xbd9c5a6e	-0.076344356
51	0xbcd36ad0	-0.025807768
52	0xbd8a724a	-0.0676008
53	0xbde234cf	-0.11045229
54	0xbcf43143	-0.029808646
55	0xbdabeb3b	-0.08394476
56	0xbd4df19c	-0.050279245
57	0xbd49c3df	-0.049259063
58	0xbd3dd58a	-0.046346225
59	0xbd0e8bc2	-0.034801252
60	0xbdd1deac	-0.102475494
61	0xbbf906b4	-0.007599676
62	0x3d7b0f14	0.061293676
63	0xb8867e41	-6.4131345e-05

main.5.weight f4 [64]
0	0x3fb13e48	1.3847132
1	0x3faf0a25	1.3674971
2	0x40044590	2.0667458
3	0x3fa44c94	1.283587
4	0x3ffadd7a	1.9598839
5	0x400ef3c5	2.2336285
6	0x3fe8297c	1.813766
7	0x3fb675db	1.4254717
8	0x405da6a7	3.4632967
9	0x3fe256fe	1.7682798
10	0x3ffc2888	1.9699869
11	0x3f306e9b	0.6891877
12	0x400b61ac	2.1778364
13	0x3f919d89	1.1376201
14	0x3fc9df02	1.5771182
15	0x3f6c53cf	0.9231538
16	0x3fe23dd9	1.7675124
17	0x3fd215c4	1.6412892
18	0x3fa6af06	1.3022163
19	0x3f3454da	0.70441973
20	0x3ff6f6de	1.9294088
21	0x3feb9277	1.8404073
22	0x400f716d	2.241298
23	0x3fa95683	1.3229526
24	0x3f84f31c	1.0386691
25	0x40194a2f	2.3951528
26	0x3fbb5f19	1.4638397
27	0x3ff2dd8b	1.897386
28	0x3f80209e	1.0009954
29	0x3fb7c54e	1.4357088
30	0x40046a6a	2.068995
31	0x400df216	2.2179008
32	0x4013e7f5	2.3110325
33	0x3f43c3d7	0.764707
34	0x3fe40843	1.7815021
35	0x4013bade	2.3082805
36	0x3f9a350a	1.2047436
37	0x3f30e303	0.6909639
38	0x40264dfd	2.59851
39	0x40030904	2.0474253
40	0x3f84484d	1.0334564
41	0x3f850bd0	1.039423
42	0x3f9a11cd	1.2036682
43	0x3fb6008d	1.4218918
44	0x3fada402	1.3565676
45	0x3fa7b22e	1.3101251
46	0x3fe1b375	1.7632891
47	0x3fb205c6	1.3908012
48	0x3fa76ef0	1.308073
49	0x3fc32719	1.5246307
50	0x400c9e6f	2.19717
51	0x3ff476db	1.9098772
52	0x3ffcfad4	1.9764047
53	0x3f399d0d	0.72505265
54	0x3f44e840	0.76916885
55	0x3f5ecb71	0.87029177
56	0x3f92a552	1.1456702
57	0x3fe8b593	1.8180412
58	0x3f60c4c6	0.8780025
59	0x3fa7b416	1.3101833
60	0x3f914670	1.1349621
61	0x400a90f0	2.1650963
62	0x3fe20ad8	1.7659559
63	0x400acc62	2.1687245

main.5.bias f4 [64]
0	0xbf29a3f6	-0.6626581
1	0x3efc69f0	0.49299574
2	0xbf2b4021	-0.6689473
3	0xbf29dc85	-0.6635211
4	0xbf2a651f	-0.6656055
5	0xbf2b0553	-0.66805
6	0xbf2ba683	-0.6705095
7	0x3f2e1f10	0.6801615
8	0xbf2ac0be	-0.6670035
9	0xbf2997e2	-0.6624738
10	0x3f2a968e	0.6663598
11	0x3f294d69	0.66133744
12	0xbf2a04b8	-0.6641345
13	0xbf0914a1	-0.535471
14	0xbf17b031	-0.5925322
15	0xbf299487	-0.6624226
16	0xbf2ac16c	-0.6670139
17	0x3f2a5ddf	0.66549486
18	0xbed8e822	-0.42364603
19	0x3f2994a8	0.66242456
20	0x3f27941f	0.6546039
21	0x3f2a724e	0.66580665
22	0x3f2b5a01	0.6693421
23	0xbf2a31c2	-0.66482174
24	0x3f2936f9	0.66099507
25	0xbf29cd9a	-0.6632935
26	0x3f29d0cb	0.6633422
27	0xbf29dea8	-0.6635537
28	0x3f299904	0.6624911
29	0xbf2a22f6	-0.66459596
30	0x3f2b332d	0.66874963
31	0x3f2a603b	0.66553086
32	0xbf2a3995	-0.66494113
33	0x3f296fc6	0.6618618
34	0xbf294928	-0.6612725
35	0xbf2a80c0	-0.66602707
36	0x3f2d9e4f	0.67819685
37	0x3f295b9e	0.6615542
38	0xbf2b792e	-0.6698178
39	0xbf29e66e	-0.6636723
40	0x3f290a0c	0.66030955
41	0x3f2bada9	0.6706186
42	0xbf115996	-0.5677732
43	0xbf2a5706	-0.6653904
44	0xbf2979e8	-0.6620164
45	0xbf2a2635	-0.6646455
46	0xbf29b7e2	-0.6629621
47	0xbf2a8a94	-0.66617703
48	0xbf2a0902	-0.66419995
49	0xbf297c90	-0.6620569
50	0xbf2a7993	-0.6659176
51	0xbf2961fd	-0.66165143
52	0xbf2a28fc	-0.6646879
53	0x3f28c398	0.6592345
54	0x3f2952ab	0.66141766
55	0x3f1f8f1b	0.62327737
56	0x3f2b1ef3	0.668441
57	0xbf29ea20	-0.6637287
58	0x3f29224b	0.6606795
59	0xbf29f3ba	-0.6638752
60	0x3f29e5aa	0.66366065
61	0xbf1886bd	-0.59580594
62	0xbf2a3ece	-0.6650208
63	0x3f2b1619	0.66830593

main.6.weight f4 [1, 64]
0	0xbf444dc4	-0.7668116
1	0xbec5118e	-0.38489956
2	0xbf90b5ff	-1.1305541
3	0xbf171ebb	-0.59031266
4	0xbf927988	-1.1443338
5	0xbf99ab40	-1.2005386
6	0xbf500a77	-0.8126597
7	0x3f9b2667	1.2121094
8	0xc0248572	-2.5706449
9	0xbf9b1a27	-1.2117356
10	0x3fc50fdc	1.5395465
11	0x3f5cf9d2	0.86318696
12	0xbfa15568	-1.2604189
13	0xbea759bc	-0.3268565
14	0xbf169233	-0.5881683
15	0xbe304b06	-0.17216119
16	0xbf806866	-1.003186
17	0x3fdffb14	1.7498498
18	0x3efab5e4	0.48966897
19	0x3f39356a	0.7234713
20	0x3fd82184	1.6885228
21	0x3fbd8ca5	1.4808546
22	0x3fa555f8	1.291686
23	0xbf1bfe43	-0.6093485
24	0x3f652696	0.89512
25	0xbfbae162	-1.4600031
26	0x3fca3b95	1.5799433
27	0xbf85406f	-1.0410289
28	0x3f92fc95	1.1483332
29	0xbf2301be	-0.63674533
30	0x3f991a8b	1.1961225
31	0x3fbd45f3	1.4786972
32	0xbf9c69eb	-1.2219824
33	0x3f4ed543	0.8079416
34	0xbf9fc47e	-1.248184
35	0xbfac55a7	-1.3463639
36	0x3f791510	0.97297764
37	0x3f4683a3	0.7754461
38	0xbfc3bbfd	-1.5291744
39	0xbf841a69	-1.032056
40	0x3f8285ac	1.0197043
41	0x3f6c25d0	0.922452
42	0xbec4efd0	-0.38464212
43	0xbf2dfbf0	-0.6796255
44	0xbf499edf	-0.78758043
45	0xbf139c7f	-0.5766067
46	0xbf838865	-1.0275999
47	0xbf08dd6f	-0.5346288
48	0xbf1fa8cb	-0.6236693
49	0xbf3f66c0	-0.7476616
50	0xbf890412	-1.0704367
51	0xbfbd5767	-1.4792298
52	0xbfb5e292	-1.4209769
53	0x3f3d6431	0.73981005
54	0x3f345fb6	0.70458543
55	0x3f3cdba8	0.7377267
56	0x3f837f62	1.0273249
57	0xbf538740	-0.8262825
58	0x3f0dc432	0.55377495
59	0xbf208a9d	-0.6271151
60	0x3f5c4bfc	0.8605344
61	0xbf9bbb3e	-1.2166517
62	0xbf528f53	-0.82249945
63	0x3fa141fe	1.2598264
